Model Report: Test_LSTM_Model
Generated: 2025-08-29T09:31:13.520849
================================================================================

MODEL SUMMARY:
----------------------------------------
Model: "sequential_1"
┏━━━━━━━━━━━━━━━━━━━━━━━━━━━━━━━━━┳━━━━━━━━━━━━━━━━━━━━━━━━┳━━━━━━━━━━━━━━━┓
┃ Layer (type)                    ┃ Output Shape           ┃       Param # ┃
┡━━━━━━━━━━━━━━━━━━━━━━━━━━━━━━━━━╇━━━━━━━━━━━━━━━━━━━━━━━━╇━━━━━━━━━━━━━━━┩
│ lstm_1 (LSTM)                   │ (None, 10, 64)         │        18,688 │
├─────────────────────────────────┼────────────────────────┼───────────────┤
│ batch_norm_1                    │ (None, 10, 64)         │           256 │
│ (BatchNormalization)            │                        │               │
├─────────────────────────────────┼────────────────────────┼───────────────┤
│ dropout_1 (Dropout)             │ (None, 10, 64)         │             0 │
├─────────────────────────────────┼────────────────────────┼───────────────┤
│ lstm_2 (LSTM)                   │ (None, 32)             │        12,416 │
├─────────────────────────────────┼────────────────────────┼───────────────┤
│ batch_norm_2                    │ (None, 32)             │           128 │
│ (BatchNormalization)            │                        │               │
├─────────────────────────────────┼────────────────────────┼───────────────┤
│ dropout_2 (Dropout)             │ (None, 32)             │             0 │
├─────────────────────────────────┼────────────────────────┼───────────────┤
│ dense_1 (Dense)                 │ (None, 16)             │           528 │
├─────────────────────────────────┼────────────────────────┼───────────────┤
│ output (Dense)                  │ (None, 3)              │            51 │
└─────────────────────────────────┴────────────────────────┴───────────────┘
 Total params: 32,067 (125.26 KB)
 Trainable params: 31,875 (124.51 KB)
 Non-trainable params: 192 (768.00 B)


TRAINING HISTORY:
----------------------------------------
LOSS:
  Initial: 2.500000
  Final: 0.420000
  Best: 0.420000

VAL_LOSS:
  Initial: 2.800000
  Final: 0.480000
  Best: 0.480000

MAE:
  Initial: 1.200000
…
